ha/ok_kevin.onnx (onnx, 205430 bytes, 9 tensors)

layer1.weight f4 [32, 1536]
00000000: 5dac 433c aae7 773c a252 33bc a7b5 12bd
00000010: 815e fc3c a8e5 013c 04c0 273b 32d2 5e3c
00000020: b200 9c3b e0f0 30bc 1304 3ebc 2eb8 783c
00000030: 31ba acbc f8b3 913c c2dd 143b 59f7 443c
00000040: 35c8 3fbc b019 3dbb 18b6 34bc f18b 9a3c
00000050: cb50 e1bc ecf4 8f3c b68c 02bc 50c9 ebbc
00000060: 9cc8 303b 9c05 65bb 13fe 8e3b c290 1d3b
00000070: 9218 54bc 9ecd adbc 513b 583c 3f38 73bc
00000080: 9d98 bcbb c96d 56bc 5190 edbc eb9e b4bc
00000090: a5ef 09bc 901f 49bc 6cd5 31bd b701 c4bc
000000a0: c80e 85bb 9666 03bd b702 b53c 0095 c93c
000000b0: 20ae 1f3c 1df5 24bb 2d70 5f3a b2e3 dd3b
000000c0: 89c5 20bd 9a74 993c beea e03b bef9 6cbc
000000d0: dafe 163c 0e7a da3c 24b2 443c 0c3c 80bc
000000e0: 3893 023d 936e 9ebc ac6e 95bb 15de b2bc
000000f0: ec45 303d 355a e0bc fef7 093d 7e14 d939
00000100: 272f bdbb c3b6 bd3c 03ea 023d 3c03 97bc
00000110: 5abb 5abc 1440 893c f04e 503c d3c5 503c
00000120: ecd9 be3c 4815 c43c 1db1 a83c e25f c93c
00000130: c0b7 043d 568d 25bc 1529 8ebc d25e 6a3c
00000140: 2102 c23c ff65 83bc 4620 e8bc f546 933c
00000150: 9f38 92bc f2e2 0cbd 8272 89bc 7ed8 8bbc
00000160: 28ee 08bb baad aabb f521 bfbb 32bb d0bc
00000170: 6849 89bc 2003 91bb b892 5abb 42ef 5bbb
00000180: 6e47 94bb 100e ac3c 22d7 babc 0c50 cbbc
00000190: 1e04 963c 26d4 b5bc a829 96ba 2a86 19ba
000001a0: a292 bdbb 3036 24bc 8017 5c3c 8a24 c13c
000001b0: 774c 343c e8e6 d63b f6eb 323c 0b8e e5bb
000001c0: 78ee 00bc ed8b b53c 079c 7bbc 10c1 c23b
000001d0: 0737 f4bb 8670 9fbc 71bd b23b 0d0a 933b
000001e0: 0aa8 f1bc 2396 343c 955c b23b 2195 cfbc
000001f0: c1c2 823c 8479 663c adc5 ecba 380f 42bc
00000200: d19c 683b 3999 3d3c ac75 383c cb37 8f3c
00000210: f432 cabb 3fec d7bc ce94 a9bc 07af 563c
00000220: c4bc a63c b143 1a3c b0b4 8abc f7bd db3c
00000230: bd7b 7cbb 201d 9f3c 078a 3fbc 8199 d2ba
00000240: 3087 493a ed2c 123d 4ae3 e43c d31a a7bc
00000250: 9c34 d5bc 8505 133d 54e4 b53c ef02 983c
00000260: 9081 723c c078 163c a085 643b 3a3d 23bc
00000270: a177 05bb 5a56 b6bb c740 43bc 0de2 af3b
00000280: 1037 04bc 54f2 a73c cc0f b8bb cecf 2c3c
00000290: 115b 33bc a86b a9bb d9a3 07bb 2787 9d3c
000002a0: 0136 31bb ac7a a13c b0f8 6c3c 0ca1 4c3c
000002b0: 7e1c 6b3b 4a6e 7b3b 66da c23c aee9 fd3a
000002c0: 3fc9 8dbb 4003 b33b 788d 1ebc 6aff 4a3b
000002d0: e832 943b 14f5 dcbb 662c 9cbb aa04 b6bb
000002e0: 62f9 043d b214 3c3b 2933 213d 9106 09bc
000002f0: da75 64bc a54f b03c fd64 eabc 9643 6a3c
00000300: 5880 a63c 38ba 403c 0620 07bd 64ae eb3b
00000310: e1df dc3c 4367 8eba e319 9dbc 0c29 ff3a
00000320: 6d9f ad3c 61ee 2ebc bb74 69bc 4294 e6bc
00000330: 8185 a3bc 98ad 09bd e8f5 c2bc 7ee6 993c
00000340: 63e0 1a3c 675f db3c e1ec 17bc 025c f43a
00000350: 7eb0 5fbc 1b2f babb f32c 00bb ce08 a83a
00000360: 60d1 f63a d70e 323c 0741 96bc 1849 2a3c
00000370: b162 e33b f5cf 343b 92ef 8a3b 33b6 2c3c
00000380: e249 c93c 9998 73bc 9fce b63c c13d 8fbc
00000390: 6c21 4ebc 11b7 20bb 10ea 9b3c 4737 9fbc
000003a0: feb7 f53c 429a 783c e09f f73b 5d21 56bc
000003b0: 208d c5bc f39e 643c f0c9 03bc 0e39 e4bc
000003c0: e3b9 f7bb be01 ca3c fac5 deba 3a7a e7bb
000003d0: c4b7 31ba 0728 303c 30fc d33c 1869 ecbb
000003e0: 415e 76bc 0fcc aabc 8cb0 69bc 4a29 7d3a
000003f0: 2e50 4cbc 3f38 e8bc 7dbd 133c 5ba9 87bb
0.01194295 0.015130917 -0.010944994 -0.03581777 0.030806782 0.0079282895 0.0025596628 0.013599919
0.004760825 -0.010799617 -0.011597651 0.015180631 -0.021084877 0.017786011 0.0022715186 0.012021863
-0.011705448 -0.0028854422 -0.011029743 0.018865557 -0.027504345 0.017572843 -0.007968118 -0.028782517
0.0026975041 -0.003494597 0.004363784 0.0024042581 -0.012945311 -0.02121621 0.013197736 -0.014844953
-0.0057554976 -0.013087698 -0.02899948 -0.022048434 -0.008418952 -0.0122755915 -0.043416426 -0.023926599
-0.0040606 -0.032080255 0.022096021 0.024607182 0.0097461045 -0.0025170513 0.00085234904 0.006771528
-0.039250884 0.018732358 0.006863921 -0.01446384 0.009216035 0.026669528 0.012005363 -0.015653633
0.03187868 -0.019339835 -0.0045603123 -0.021834413 0.043035433 -0.027386764 0.03368377 0.00041404733
-0.0057734433 0.023158437 0.031961452 -0.01843416 -0.013350332 0.016754188 0.012714133 0.0127424775
0.023297273 0.023935929 0.020592267 0.024581853 0.0324018 -0.010104498 -0.017353574 0.0143048335
0.023682656 -0.016039846 -0.028335702 0.01797817 -0.017849265 -0.03439612 -0.016778234 -0.017071005
-0.0020893905 -0.005208698 -0.0058329054 -0.025479887 -0.016758636 -0.0044254214 -0.0033351611 -0.0033559357
-0.0045251166 0.0210028 -0.022807661 -0.024818443 0.01831251 -0.022195887 -0.0011456506 -0.0005856479
-0.0057853023 -0.010022685 0.013433337 0.023576993 0.011004559 0.006558288 0.010920515 -0.007005458
-0.007869355 0.022161448 -0.015357024 0.005943425 -0.007452849 -0.019462835 0.005454712 0.004487282
-0.029499073 0.0110221235 0.0054431655 -0.025339665 0.015962007 0.0140670575 -0.0018064283 -0.011844449
0.003549386 0.011572176 0.011258524 0.017482659 -0.006170625 -0.026357768 -0.020700838 0.013103253
0.020353682 0.009415553 -0.016931862 0.02682398 -0.0038525902 0.019423068 -0.011690623 -0.0016067476
0.0007687686 0.035687376 0.027940411 -0.020398533 -0.026026063 0.035893936 0.022203602 0.018556086
0.014801398 0.0091840625 0.0034869686 -0.009963328 -0.0020365494 -0.005564493 -0.0119173 0.0053675235
-0.008069769 0.020501293 -0.0056171175 0.010547591 -0.010947005 -0.0051703043 -0.0020697026 0.019229485
-0.0027040245 0.019711815 0.014463589 0.012489568 0.0035875137 0.0038365298 0.023785781 0.001937201
-0.004326969 0.005463034 -0.0096772835 0.0030974993 0.00452267 -0.006743083 -0.004766035 -0.005554755
0.032464392 0.0028698859 0.03935543 -0.008363382 -0.013944114 0.021522352 -0.028612608 0.01429834
0.020324871 0.011763148 -0.032989524 0.00719242 0.026962223 -0.0010864515 -0.019177383 0.0019467189
0.021194184 -0.010676951 -0.014249022 -0.028146867 -0.01996112 -0.033612818 -0.023798898 0.018786665
0.009452912 0.02677889 -0.009272785 0.0018643143 -0.013652919 -0.005681885 -0.0019558042 0.0012820007
0.0018830709 0.010867796 -0.018341554 0.0103934035 0.006939255 0.0027589772 0.004239985 0.010541487
0.024571363 -0.014867925 0.022315321 -0.017485501 -0.012581211 -0.0024523179 0.019032508 -0.019435538
0.02999496 0.015173497 0.0075569004 -0.013069478 -0.024115145 0.013953912 -0.008043751 -0.027859237
-0.007560001 0.024659034 -0.0016996257 -0.007064131 -0.00067793974 0.010751731 0.025877088 -0.0072146766
-0.01503712 -0.020849256 -0.014263283 0.00096573366 -0.012470288 -0.028347133 0.0090173455 -0.004140062

layer1.bias f4 [32]
00000000: 2a69 acbc 5037 c0bc 4605 623c 6078 413c
00000010: 4ce9 94bc 7b42 11bb 7fac b13c 3249 8cbc
00000020: c0d3 543b f059 893c 4151 653a 51e2 fcb9
00000030: 3a69 27bb f176 193c e1c1 843c ea0d 3dbc
00000040: 9de0 86bc 6626 f03b b7d6 9ebc 06f7 173c
00000050: 28fa 853c ca45 0d3a f3eb adbc aaa2 a93c
00000060: 8cb4 ab3b 8d37 023d 5164 703c 9470 043c
00000070: 426e b63c 9d69 17bb c87f 04b9 e5a3 cd3b
-0.02104624 -0.023463875 0.013795203 0.011808485 -0.01817765 -0.002216487 0.021688698 -0.017124746
0.0032474846 0.016766518 0.00087477645 -0.00048233804 -0.0025544898 0.009366737 0.01620573 -0.011538962
-0.016464526 0.007328796 -0.019389493 0.009275204 0.016354635 0.00053891225 -0.021230673 0.020707447
0.0052400287 0.03179126 0.014672355 0.008083481 0.022269372 -0.0023103722 -0.00012636103 0.0062756413

layernorm1.weight f4 [32]
00000000: 148b 7c3f 66b6 723f 3fac 813f eb07 7f3f
00000010: 07ce 823f fef0 783f 0238 7f3f 26db 743f
00000020: d461 813f dfc0 7a3f f0c5 7d3f b03f 7f3f
00000030: 166c 7d3f f716 823f aa7d 7b3f 28c6 803f
00000040: 327b 8f3f 811e 7f3f 60e3 803f f349 7f3f
00000050: f7c2 7e3f ae24 7f3f 7704 7f3f be00 7f3f
00000060: 2132 7f3f a57e 833f 9462 7a3f 8cd2 753f
00000070: 3d67 7e3f 6fbb 813f 1e15 723f 5a0e 763f
0.98649716 0.9480957 1.013069 0.99621457 1.0219125 0.97242725 0.99694836 0.95646894
1.010798 0.9795055 0.99130154 0.99706554 0.9899305 1.0163258 0.98238623 1.0060472
1.1209471 0.9965592 1.0069389 0.9972221 0.9951624 0.99665344 0.9961619 0.9961051
0.99685866 1.0273024 0.9780667 0.96024394 0.9937628 1.0135325 0.9456347 0.9611565

layernorm1.bias f4 [32]
00000000: 6d98 50bd 9c41 343c 7122 173b 8178 4b3c
00000010: 1c32 033d 29fe 183d e6ac 83bc e4f0 63bd
00000020: 6280 813c 78d9 65bb 2e72 9f3c 3ea8 e1bc
00000030: a6d3 a43c 4565 b43c bbb3 b9bc 051e 433c
00000040: 3111 1a3e 697e 93bc b560 9e3c 2ece 70bc
00000050: 1108 b2bc a123 a7bc 944b a1bc 1b92 9a3c
00000060: ad6b 9dbc 7e44 a13c 7a9b 77bb c042 42bb
00000070: 1835 c7bb 1ce6 3dba c0c1 053c 4f29 f9bb
-0.050926615 0.011001971 0.00230613 0.012418867 0.03203021 0.03735176 -0.016073655 -0.055649653
0.015808288 -0.0035072248 0.019463625 -0.027546044 0.020120453 0.022020945 -0.02266871 0.011909013
0.1504562 -0.018004613 0.019333223 -0.014697595 -0.021732362 -0.020402731 -0.019689359 0.018868497
-0.019216383 0.01968598 -0.003778188 -0.0029641837 -0.0060793273 -0.0007244067 0.008163869 -0.0076038013

blocks.0.fcn_layer.weight f4 [32, 32]
00000000: 7596 95bd 79a7 dc3d feca cf3c b286 b7bc
00000010: 79d0 573d 9089 073e 5981 a0bd 7f0b 08bd
00000020: 9d78 4bbd c8ec e2bd f2cf 29be 989c 1bbe
00000030: 7401 06be eab3 143e 1a26 0fbe 6a64 2a3e
00000040: b2c4 1a3d 4a9d 863d aed3 25bd 7e5c 573c
00000050: d91d 04be 3d4e 1a3e 86ca b1bc 6055 47bd
00000060: df34 673d 651a e43d 0c7c 183e 8305 183e
00000070: 3b39 63bd 289d 0bbe 12a5 393e ba4a 103e
00000080: d759 d03d 9bd7 a6bd d3d8 1e3d 02a1 b0bd
00000090: 8340 873d 6533 5f3e 935c b23b e6cb 95bd
000000a0: 98ae de3c 9280 1fbe 32c8 6d3d 7fe2 fc3c
000000b0: 8c3f bb3d 2316 1cbd 16d9 b7bd 4c9d 663c
000000c0: 3167 2b3e 05b2 bcbd 5eee 64bd ff53 5dbd
000000d0: 6f6b b8bb 91a5 e93d 476d 85bd 62d0 19be
000000e0: c2ef 4dbd 8426 94bd 91d6 263d fc7e aebd
000000f0: eda3 22be aece 133e 3e58 d03c ca52 37be
00000100: 8829 1c3e d74e f5bd 397c 96bb 050d 003e
00000110: c70b b73d c977 f43d 41f7 dbbc b48f 30bc
00000120: 4236 043e a5ec a43c b887 ff3b 0146 323e
00000130: eabe 3dbe d0b0 e73d d876 04be 1823 b53d
00000140: a509 3d3e a7c6 04be 448c d53d 057f 2cbe
00000150: b8cb 9f3d 3085 2abe a319 01be eab0 123e
00000160: 22b5 f5bd a066 21bc 5953 a4bd d11d 83bd
00000170: 71be 05be 7613 91bd 9811 af3d 5f17 99bc
00000180: 7728 04be 10a8 fcbd 29f6 933d 8a27 6fbd
00000190: e357 0bbd bf29 16be b20d be3c cd69 903d
000001a0: 5402 6ebd c991 29bd e0ba 56bd 474f 2abe
000001b0: 4530 d0bd 4071 1f3d ec45 933c ffcb 0fbe
000001c0: 5cbe 26be 8baf b33d bc6c 8d3d 6f15 0a3e
000001d0: 39f6 ffbd b99b 38bd b8a0 183d 4b11 583d
000001e0: 3236 febc 4073 fe3d e6f3 41bd 584f 593c
000001f0: 0cbe a6bd 50a3 243e 86e1 9c3d dd23 cebd
00000200: a6dd 523d 9708 843d c9f3 e73d cef4 84bc
00000210: 5c2f d53d c8a9 6b3d 9ac9 2fbd b825 47be
00000220: 1d6a 6c3d b2e5 f43d 3d27 283e ea9f a13d
00000230: e9b1 9bbd b6d2 f4bd 2958 f53d 07c3 bfbc
00000240: 8c98 29bc d35b 143e 82a8 4cbd 0018 173e
00000250: 0c17 a23d 4f07 2cbe d0a0 2f3d 544f 5b3d
00000260: d19f c33c c97d f8bd c2f5 a83d 462d 273e
00000270: 35ed d6bd 2fc8 973c 90e1 863d 01bf 31be
00000280: 723c 1b3d 05f8 ef3c a254 313e 7797 aabd
00000290: 6fd2 1e3e 04ca f9bd 9e08 e3bc 06ea 943d
000002a0: b7b1 2abd 2e58 82bd 9d61 78bd 0a28 ee3b
000002b0: 3ad1 5c3d 6425 a4bd 6739 11be a835 c53d
000002c0: 2e0b 54bc f0e2 0dbe 8829 133e 62b1 92bb
000002d0: afd6 6abc 8256 47bd 9ff9 363d 7ebd eebc
000002e0: 34ea a1bd 6267 4ebe e257 e5bd 68da 203e
000002f0: cb66 383d ae09 7abd ae9e 25be 0401 1e3e
00000300: 062f 973d 8256 93bd 3033 863d 34f0 fc3d
00000310: 4282 44bd 3aa6 0bbe 0fe1 d13d c127 133c
00000320: c55a 26be 7174 283d f23d 97bd fcb5 27bc
00000330: 3c75 02bd 8389 d9bd db6a d0bd c8b2 54bd
00000340: 7716 0c3d 48cb 0f3e e802 46be 7cdf 0d3e
00000350: 812b eebd d9ae f1bd 109b 3cbd a060 1d3d
00000360: d559 8f3d 85c4 b83c 01cb acbc 49af 96bd
00000370: b700 c1bd f580 583d f271 df3d 5c06 24bc
00000380: 2fd3 1bbc fe3a 123e 5319 c63d a595 1fbe
00000390: be08 ea3d 639b be3d 3546 d1bd 6d0d 723d
000003a0: b772 18be 7294 19be 74b7 06be 9d63 f23d
000003b0: f193 813d eddf 3bbc 33d3 5dbd 88f5 fd3d
000003c0: f02c 93be 651c d1bd e18b 083e 47d7 e63d
000003d0: 8e62 f9bc c8c6 f5bd 404b 603d e17e 9bbd
000003e0: a92b a6ba a9a8 febd 9dfd a7bd bd9a ae3d
000003f0: a264 8abd ed28 273b 7582 5dbd d5aa b8bc
-0.07304088 0.107741304 0.025365349 -0.022403095 0.05268905 0.1323607 -0.07837171 -0.03321409
-0.049675573 -0.11080319 -0.16583231 -0.15196455 -0.13086492 0.14521757 -0.13979378 0.16639867
0.03778524 0.06572969 -0.040485077 0.01314461 -0.12902011 0.15068908 -0.021703016 -0.048665404
0.056446906 0.11137847 0.1489107 0.14845853 -0.0554745 -0.13634169 0.18129376 0.14091006
0.101733856 -0.08146592 0.038781 -0.0862446 0.066041015 0.21796949 0.0054431646 -0.07314281
0.027182862 -0.1557639 0.05805225 0.03086972 0.0914298 -0.03810705 -0.08976953 0.014075588
0.16738583 -0.09213642 -0.055891387 -0.054035183 -0.0056280415 0.114085324 -0.065149836 -0.15020898
-0.05027748 -0.07233909 0.04073197 -0.08520314 -0.15882845 0.14434311 0.025432702 -0.17902675
0.15250218 -0.11977928 -0.004592445 0.12504967 0.08937793 0.1193691 -0.026851298 -0.010776449
0.12911323 0.020132372 0.0077981614 0.17409517 -0.18529859 0.11313021 -0.1293596 0.08844584
0.1846071 -0.12966405 0.10427144 -0.16845329 0.07802528 -0.1665237 -0.12607436 0.143253
-0.11997439 -0.009851128 -0.0802371 -0.064021714 -0.13060929 -0.0708379 0.085482776 -0.018687902
-0.12906061 -0.12336743 0.07224686 -0.058387317 -0.034019362 -0.14664362 0.02319989 0.0705143
-0.05810769 -0.041398797 -0.05242431 -0.16631804 -0.10165457 0.038926363 0.017977677 -0.14042662
-0.16283554 0.087737165 0.06905505 0.13484739 -0.12498135 -0.045070384 0.03726265 0.052750867
-0.031031702 0.12424326 -0.04735174 0.013263546 -0.08141717 0.16077924 0.07660203 -0.10065434
0.05148091 0.06446951 0.11325795 -0.016230013 0.10409424 0.057534963 -0.04291687 -0.19447982
0.057718385 0.119578734 0.16421218 0.07891829 -0.07602293 -0.119542524 0.11979706 -0.023408426
-0.010351311 0.14488153 -0.04996539 0.14755249 0.07914552 -0.16799663 0.042877972 0.05354245
0.023879917 -0.121333666 0.082499996 0.16325864 -0.104944624 0.018528072 0.065859914 -0.17358018
0.037899442 0.02929307 0.17317441 -0.08329671 0.15509962 -0.121967345 -0.02771407 0.07271199
-0.04167339 -0.06364475 -0.060639966 0.0072679566 0.05391047 -0.08014944 -0.14182054 0.09629375
-0.012942119 -0.13856101 0.14371312 -0.004476712 -0.014333411 -0.048666485 0.04467165 -0.029143091
-0.07905999 -0.20156625 -0.11198403 0.15708315 0.045019906 -0.061044388 -0.16173813 0.15430075
0.07382016 -0.071942344 0.06552732 0.123505026 -0.047975786 -0.13637629 0.10248005 0.008981646
-0.16245563 0.041126672 -0.07384862 -0.01023626 -0.031850085 -0.106219314 -0.10176631 -0.05192831
0.03420111 0.1404239 -0.19337046 0.13854784 -0.116293915 -0.11800928 -0.046046317 0.038422227
0.06999556 0.022554645 -0.021092894 -0.07357652 -0.094239645 0.052857358 0.10910405 -0.010011282
-0.009510799 0.14280316 0.09672799 -0.15584429 0.11427449 0.093069814 -0.10218469 0.059094835
-0.1488751 -0.14998034 -0.1315592 0.11835406 0.06327046 -0.011466962 -0.054156493 0.12400347
-0.28745222 -0.10210494 0.1333461 0.1127153 -0.030442502 -0.12000805 0.054759264 -0.075925596
-0.0012677807 -0.12434513 -0.0820267 0.08525608 -0.067574754 0.0025506571 -0.05407949 -0.022542397

blocks.0.fcn_layer.bias f4 [32]
00000000: 5ff7 1dbd 1bb1 e7bd 9497 e1bc 593c 94bd
00000010: a563 1cbe f1a9 913d a665 983d 74fd 303d
00000020: a058 af3d 8d2f f73d af6b 323c e41b 69bd
00000030: dc3e c53d d382 1c3c 61e1 e03d 0994 9b3c
00000040: 7c3d 093e 9859 d3bd b2a6 4e3d 52f3 7bbd
00000050: 5e8d b2bd ad9f ee3d f1cb 16bd 6a23 313d
00000060: 69c5 0abe 0303 f5bd 467a 763b cccf 7ebc
00000070: 9c18 a33d 2a32 743d 5e29 7a3d f1bf f4bd
-0.03856599 -0.11313077 -0.027538098 -0.07238073 -0.15272386 0.07112492 0.07441263 0.04321046
0.08561826 0.120696165 0.010889932 -0.056911364 0.0963113 0.009552675 0.109804876 0.018991487
0.1340236 -0.10319823 0.05045194 -0.061511345 -0.0871837 0.116515495 -0.036815587 0.043246664
-0.13551868 -0.11963465 0.0037609502 -0.015552472 0.07963678 0.059618153 0.061074607 -0.119506724

blocks.0.layer_norm.weight f4 [32]
00000000: defb 9d3f 4c00 8a3f 8a24 9e3f ce92 883f
00000010: 7335 853f 2e25 823f a706 7e3f 99af 823f
00000020: 29b0 873f d724 ab3f 61f5 7e3f 34d0 7f3f
00000030: cc1b 863f 3e38 7d3f dd02 883f 25fb 753f
00000040: 4648 833f 640f 813f 1033 7d3f a560 a93f
00000050: 37ac 7e3f 3ac8 a23f a377 8b3f 6790 713f
00000060: d278 8d3f d2de 843f c2d4 803f 407d a13f
00000070: 558e ab3f 3e71 803f 88f3 aa3f 86b7 863f
1.2342489 1.0781341 1.2354901 1.0669801 1.0406936 1.0167596 0.992289 1.0209838
1.0600635 1.3370618 0.9959317 0.9992707 1.0477233 0.98913944 1.0625874 0.9608634
1.0256431 1.0082822 0.9890604 1.3232619 0.9948153 1.2717354 1.0895885 0.94360965
1.1052496 1.0380499 1.0064929 1.2616348 1.3402811 1.0034559 1.335557 1.0524757

blocks.0.layer_norm.bias f4 [32]
00000000: 2026 833e fcd5 563d ed16 863e 2d39 8b3d
00000010: b1ed 133d dbdd 373c bed4 32bc 133b 0f3c
00000020: 9464 e93c 46b2 9a3e e7b5 f0bb c230 73bb
00000030: 382e 183d e274 57bc 6ad5 d53c 6ec4 32bd
00000040: ed4c 0a3d 531c 833b cee2 9ebc f463 973e
00000050: 66bc 21bc 461a 8b3e a412 f23c 59df 69bd
00000060: 988c 033e aaa6 ae3c d07d 483b bb07 893e
00000070: 0a7b 993e 0f66 a83c 18d8 993e c3af 2c3d
0.25615025 0.052450165 0.26189366 0.06798015 0.036115352 0.011222328 -0.0109149795 0.008742112
0.028490342 0.30214137 -0.007345903 -0.003710792 0.037153453 -0.013150426 0.02610274 -0.04364436
0.03376477 0.0040011792 -0.019395258 0.29568446 -0.009871578 0.27168483 0.029549904 -0.057097767
0.12846601 0.021319706 0.0030592568 0.2676371 0.29976684 0.020556478 0.3004768 0.042159807

last_layer.weight f4 [1, 32]
00000000: 5200 babe 5f82 6a3e 30e1 a9be a225 c73c
00000010: 9caa a23d e203 333e 33db cebd 5793 3a3d
00000020: 0b60 393e 2c6d aabe 9844 8e3d 9a2c ec3d
00000030: fa75 423d 4aad abbd 3b9a 4e3e 5a75 20bd
00000040: 7b17 ae3d cf6f 1d3e 80cc b4bd bcaf a8be
00000050: 3e41 9a3d 7228 aebe d90d 863e bfb5 98bd
00000060: 0098 8abe f261 a13d 2c08 9f3d 8b18 b2be
00000070: 2261 b0be 369e e5bd 0eb7 abbe 6c67 493d
-0.3632837 0.22901295 -0.33179617 0.024309937 0.079426974 0.1748195 -0.10100403 0.04555067
0.18103044 -0.33286417 0.06946677 0.115319446 0.047475792 -0.08382662 0.20176022 -0.039174415
0.08500572 0.15374683 -0.08828068 -0.32946575 0.07531975 -0.34015232 0.2618244 -0.0745654
-0.27069092 0.0788001 0.077652305 -0.3478435 -0.34449106 -0.11211817 -0.33538097 0.049170896
